RDN(
  (SFENet1): Conv2d(3, 64, kernel_size=(3, 3), stride=(1, 1), padding=(1, 1))
  (SFENet2): Conv2d(64, 64, kernel_size=(3, 3), stride=(1, 1), padding=(1, 1))
  (RDBs): ModuleList(
    (0-15): 16 x RDB(
      (convs): Sequential(
        (0): RDB_Conv(
          (conv): Sequential(
            (0): Conv2d(64, 64, kernel_size=(3, 3), stride=(1, 1), padding=(1, 1))
            (1): ReLU()
          )
        )
        (1): RDB_Conv(
          (conv): Sequential(
            (0): Conv2d(128, 64, kernel_size=(3, 3), stride=(1, 1), padding=(1, 1))
            (1): ReLU()
          )
        )
        (2): RDB_Conv(
          (conv): Sequential(
            (0): Conv2d(192, 64, kernel_size=(3, 3), stride=(1, 1), padding=(1, 1))
            (1): ReLU()
          )
        )
        (3): RDB_Conv(
          (conv): Sequential(
            (0): Conv2d(256, 64, kernel_size=(3, 3), stride=(1, 1), padding=(1, 1))
            (1): ReLU()
          )
        )
        (4): RDB_Conv(
          (conv): Sequential(
            (0): Conv2d(320, 64, kernel_size=(3, 3), stride=(1, 1), padding=(1, 1))
            (1): ReLU()
          )
        )
        (5): RDB_Conv(
          (conv): Sequential(
            (0): Conv2d(384, 64, kernel_size=(3, 3), stride=(1, 1), padding=(1, 1))
            (1): ReLU()
          )
        )
        (6): RDB_Conv(
          (conv): Sequential(
            (0): Conv2d(448, 64, kernel_size=(3, 3), stride=(1, 1), padding=(1, 1))
            (1): ReLU()
          )
        )
        (7): RDB_Conv(
          (conv): Sequential(
            (0): Conv2d(512, 64, kernel_size=(3, 3), stride=(1, 1), padding=(1, 1))
            (1): ReLU()
          )
        )
      )
      (LFF): Conv2d(576, 64, kernel_size=(1, 1), stride=(1, 1))
    )
  )
  (GFF): Sequential(
    (0): Conv2d(1024, 64, kernel_size=(1, 1), stride=(1, 1))
    (1): Conv2d(64, 64, kernel_size=(3, 3), stride=(1, 1), padding=(1, 1))
  )
  (UPNet): Sequential(
    (0): Conv2d(64, 256, kernel_size=(3, 3), stride=(1, 1), padding=(1, 1))
    (1): PixelShuffle(upscale_factor=2)
    (2): Conv2d(64, 256, kernel_size=(3, 3), stride=(1, 1), padding=(1, 1))
    (3): PixelShuffle(upscale_factor=2)
    (4): Conv2d(64, 3, kernel_size=(3, 3), stride=(1, 1), padding=(1, 1))
  )
)
[Epoch 1]	Learning rate: 5.00e-5
[1600/16000]	[L1: 31.6351]	21.9+19.8s
[3200/16000]	[L1: 23.3988]	21.4+10.4s
[4800/16000]	[L1: 19.5989]	21.5+10.3s
[6400/16000]	[L1: 17.3466]	21.4+10.5s
[8000/16000]	[L1: 15.8705]	22.0+10.6s
[9600/16000]	[L1: 14.7729]	21.4+10.5s
[11200/16000]	[L1: 13.9763]	21.5+10.4s
[12800/16000]	[L1: 13.3131]	21.5+10.4s
…
